Downloading https://www.cs.toronto.edu/~kriz/cifar-10-python.tar.gz to ./data/cifar-10-python.tar.gz
(50000, 32, 32, 3) <type 'numpy.ndarray'> uint8 (32, 32, 3) <type 'numpy.ndarray'> uint8
Actual noise 0.70
(50000, 32, 32, 3) <type 'numpy.ndarray'> uint8 (32, 32, 3) <type 'numpy.ndarray'> uint8
Files already downloaded and verified
loading dataset...
building model...
<bound method CNN_small.parameters of CNN_small(
  (conv1): Conv2d(3, 6, kernel_size=(5, 5), stride=(1, 1))
  (pool): MaxPool2d(kernel_size=2, stride=2, padding=0, dilation=1, ceil_mode=False)
  (conv2): Conv2d(6, 16, kernel_size=(5, 5), stride=(1, 1))
  (fc1): Linear(in_features=400, out_features=120, bias=True)
  (fc2): Linear(in_features=120, out_features=84, bias=True)
  (fc3): Linear(in_features=84, out_features=10, bias=True)
)>
<bound method CNN_small.parameters of CNN_small(
  (conv1): Conv2d(3, 6, kernel_size=(5, 5), stride=(1, 1))
  (pool): MaxPool2d(kernel_size=2, stride=2, padding=0, dilation=1, ceil_mode=False)
  (conv2): Conv2d(6, 16, kernel_size=(5, 5), stride=(1, 1))
  (fc1): Linear(in_features=400, out_features=120, bias=True)
  (fc2): Linear(in_features=120, out_features=84, bias=True)
  (fc3): Linear(in_features=84, out_features=10, bias=True)
)>
Evaluating cifar10_coteaching_plus_from_file_0.2...
Epoch [1/200] Test Accuracy on the 10000 test data: Model1 9.9860 % Model2 10.7973 %
Training cifar10_coteaching_plus_from_file_0.2...
Epoch [2/200], Iter [50/390] Training Accuracy1: 20.3125, Training Accuracy2: 20.3125, Loss1: 0.0175, Loss2: 0.0175
Epoch [2/200], Iter [100/390] Training Accuracy1: 20.3125, Training Accuracy2: 20.3125, Loss1: 0.0176, Loss2: 0.0176
…
